app/src/main/assets/binary_model_BEST.tflite (tflite, 681052 bytes, 24 tensors)

dense_1/bias f4 [2]
00000000: 7c3a b13d 903b b1bd
0.08653733 -0.08653939

dense/bias f4 [64]
00000000: bd68 86be b063 dfbe 1345 89be d322 8abe
00000010: 8bb8 95be a2da 68be eb12 fcbc 3428 18be
00000020: 1f3c 76be 988f 65be ea96 e1be c746 85be
00000030: ddaf 44be d6e4 dabe cb05 e8be db56 46be
00000040: 9901 16be f512 eebe fac5 d1be 156e 44be
00000050: 7ce1 0dbe e6b7 59be ba3b d9be ee46 b0be
00000060: 4e68 91be 33a0 58be 1e69 7ebe 9fcb 74be
00000070: 9810 6fbe 93d6 3fbe 104a 5abe 47b2 1bbe
00000080: 97ac 33be 8125 a4be 071e 1abe 0516 33be
00000090: ab6d 1ebe 3522 8dbe 11d5 1dbf 05ae b2be
000000a0: 8db7 42be c5a9 c9be 86ac 5abe 5db8 87be
000000b0: 3763 63be 1244 0dbe 6b46 3dbe 1f85 60be
000000c0: 69ab 6ebe 95c6 82be 2bdc 99be d22c 11be
000000d0: 3417 cebe 026a 39be 0c9e 92be 7d03 a0be
000000e0: a237 bfbe 6517 04bf cd73 d4be 7695 87be
000000f0: 9417 98be 3cb3 39be 1681 98be f082 f1be
-0.26251784 -0.43630743 -0.26810512 -0.26979694 -0.29242358 -0.22739652 -0.03077074 -0.14859086
-0.24046372 -0.22418058 -0.4406045 -0.2603056 -0.19207712 -0.42752713 -0.4531692 -0.1936907
-0.14649047 -0.46498838 -0.40971357 -0.19182618 -0.13855547 -0.21261558 -0.4242838 -0.34429115
-0.2839989 -0.21154861 -0.24844787 -0.239058 -0.23346174 -0.18734197 -0.21317315 -0.15204726
-0.17546307 -0.32059863 -0.15050517 -0.17488869 -0.15471523 -0.2756516 -0.6165324 -0.3489839
-0.19015332 -0.39387336 -0.21354875 -0.26507846 -0.22205816 -0.13795498 -0.18483894 -0.21925782
-0.23307575 -0.2554213 -0.30050787 -0.14177254 -0.40252078 -0.18106845 -0.28636205 -0.3125266
-0.37347132 -0.515982 -0.414946 -0.26481217 -0.2970549 -0.18134779 -0.29785985 -0.4717021

conv2d_4/bias f4 [64]
00000000: 5fff 5fbd 5b10 25be e982 fbbe 12ea a2be
00000010: 21ac c0be ec97 92be 21e4 69be e8bb 57be
00000020: 3a90 2dbe 1e80 6f3d fac6 c2be 6560 98be
00000030: b60d b73c 51da c4be 4e14 d8be cc77 a2be
00000040: 1f65 53be f2fe a7be 9340 d3be 41cd 6dbe
00000050: 11da 99be 181a 0dbe 6314 10be f8fd 35bf
00000060: 89f7 31be 0a18 afbe 54e5 fdbe 2306 dabe
00000070: 0780 fcbe 2035 c4be 8392 efbe ea46 24bf
00000080: ab26 ccbe f025 edbe c2d3 bfbd 6471 0abf
00000090: 2083 8dbe 162a c1be c3e4 83be 9c3c 95be
000000a0: 04d1 01bf 215d 7dbd 68da 4bbf b336 68bf
000000b0: 2d79 06bf 7e5a 02bf 5998 83be 9d5e 18bf
000000c0: 2946 a9be a428 f9bd bd74 afbe 7fe7 59be
000000d0: ec32 2dbe 9457 a5be b64a 5dbe f8a4 1abf
000000e0: 346e 7bbe 69b5 6cbe 0d73 eabe 480f c5be
000000f0: 43b4 5abe cc0d 99be 2dbc 813c ae94 aabe
-0.0546869 -0.1611952 -0.49123314 -0.31819206 -0.37631324 -0.28631532 -0.2284093 -0.21067774
-0.1694955 0.05847179 -0.38042432 -0.29761043 0.022345405 -0.38447812 -0.4220299 -0.31732023
-0.20644043 -0.32811695 -0.41260204 -0.2322283 -0.30049184 -0.13779485 -0.14070277 -0.7109065
-0.17379583 -0.34198028 -0.49589026 -0.42582807 -0.49316427 -0.3832178 -0.46791467 -0.64170706
-0.3987325 -0.46318007 -0.093665615 -0.5407927 -0.27639103 -0.37727422 -0.2576047 -0.29147804
-0.5070956 -0.061856393 -0.79630136 -0.90708464 -0.5252865 -0.5091933 -0.2570217 -0.5951937
-0.3306134 -0.12165955 -0.34268752 -0.21279715 -0.16913956 -0.3229338 -0.21610531 -0.6040797
-0.24553758 -0.23116077 -0.45790902 -0.3848822 -0.21357827 -0.2989334 0.0158368 -0.3331656

conv2d_3/bias f4 [64]
00000000: a291 13bf 158f abbe c477 5cbe 1588 ce3d
00000010: 2f8d 18bf dfb5 49be 615e 2cbf 5f13 ddbe
00000020: 6dab 2ebf 1ac8 f6bc a362 02bf 9e0a 33be
00000030: 9294 34be b5b6 bcbd 4bf0 6abe 0593 82bd
00000040: c629 bdbe e134 bbbe 39b9 c0be 89a3 89be
00000050: 1311 8cbe ad80 babe c7eb 13bf 925b 4abe
00000060: d2fa 12bf 188e 1bbf 9c06 2fbd e61f c1bc
00000070: 2873 1dbe 2710 0fbf 12f1 923e e6f7 8d3c
00000080: 6a75 91be c6f7 793d e2d2 08bf 76c9 073d
00000090: fa5d fdbe e225 9a3c a492 14bf 8512 0cbf
000000a0: 8ef7 fbbd 46e4 bc3d 56fc 9fbe 3bf2 abbe
000000b0: b156 aa3e d020 20be 0bfc 42be 75b2 e4bd
000000c0: a64b b6bd dbee 0abe 02ad 02be 27e5 41be
000000d0: b3cc 40bd 24bb 57be 3c93 23be 7806 06bf
000000e0: dde6 263d 4757 9cbe 8c8f 24bf 128b 9dbe
000000f0: 66fa a33d 7578 63be b1ff 19be e705 c6bd
-0.57644093 -0.335076 -0.21530062 0.10084549 -0.5959043 -0.19698285 -0.6733151 -0.4317884
-0.68230325 -0.030124713 -0.5093176 -0.17484519 -0.176348 -0.09214536 -0.22943227 -0.06375698
-0.36945933 -0.3656378 -0.37641314 -0.2688258 -0.27356777 -0.36426297 -0.5778164 -0.19761494
-0.5741397 -0.6076369 -0.042730913 -0.02357478 -0.1537596 -0.5588402 0.28699547 0.017330121
-0.28409892 0.06102731 -0.5344678 0.033151112 -0.4948576 0.018816892 -0.58036256 -0.5471576
-0.12303077 0.09223227 -0.31247205 -0.33583245 0.33269265 -0.15637517 -0.1904146 -0.111668505
-0.089011475 -0.13567679 -0.1276131 -0.18935071 -0.047070216 -0.21067482 -0.15974134 -0.5235362
0.040747512 -0.30535337 -0.64281535 -0.30770165 0.08006744 -0.2221392 -0.15038945 -0.096690945

conv2d_2/bias f4 [64]
00000000: d263 babe 6369 adbe add9 b7be 38c6 33be
00000010: c4ed 11bf 7319 e5be 6569 5dbf d18f bbbe
00000020: e400 07bd d08c 33be d1d8 93be 4fb0 88be
00000030: e3b2 1ebe dba4 4bbe 7dca 79bd b858 45bf
00000040: dcca 01bf 3322 9ebe acbb 27be d157 eabd
00000050: 016d 363d 7bd3 33be 276e 06be 992e 53be
00000060: 0c16 a2be ea8e ecbd adcb fabe 78f2 9ebd
00000070: 17c3 ccbe 2a57 b0be 2eb1 b53e 3fe4 d4be
00000080: 772a 28bd b77f 2ebf 43ae d0be 5426 b5bd
00000090: dddd d6be 831b 8a3e 10bc 78be c798 f9be
000000a0: 733e 93be b99a 90be e260 a2be f475 fabe
000000b0: daa6 97be c9cd 97be 2d74 d0be a6cf 19bd
000000c0: 3822 9dbd f145 83be ddf3 e5be d966 6abe
000000d0: f1a1 52bd b3bf d2bd b254 43be c033 27bd
000000e0: b264 adbe d65a 0fbe fc6d 5ebe 67db e8be
000000f0: 2783 33be bf31 ac3a 8d5f 57bf e599 1bbe
-0.36404282 -0.33869466 -0.3590826 -0.17556083 -0.57003427 -0.4474598 -0.86488944 -0.3663316
-0.032959834 -0.17534184 -0.28876355 -0.26697013 -0.15497927 -0.19887106 -0.060984123 -0.770885
-0.50700164 -0.30885467 -0.16380185 -0.11442531 0.044537548 -0.17561142 -0.13127957 -0.20623244
-0.31657445 -0.11550696 -0.48983517 -0.07761091 -0.39992592 -0.344415 0.3548674 -0.41580388
-0.041056123 -0.6816363 -0.4075795 -0.08845201 -0.41966143 0.26974115 -0.2429049 -0.48749372
-0.28758582 -0.28243044 -0.3171454 -0.48918116 -0.29619485 -0.2964919 -0.40713635 -0.037551545
-0.07672542 -0.256393 -0.44912615 -0.22890796 -0.05142397 -0.1029047 -0.19075277 -0.040820837
-0.33865887 -0.13999495 -0.21721643 -0.4547989 -0.175305 0.0013137384 -0.84130174 -0.15195425

conv2d_1/bias f4 [32]
00000000: 8699 0d3e 5d3e 9f3d 2ae2 a03d 0c32 76bf
00000010: 7411 253e 6bf2 353d 4d36 373d 9464 653e
00000020: df14 6c3e f35f 333e 5308 08bd bd60 a23e
00000030: b74d d63c 4ac6 90be 1a9d 9dbb 4ed4 37be
00000040: 9217 d53e 7b72 09be 8dc4 e13c a9dd 4bbe
00000050: 4b92 26be 0939 07bf 5e3b 8abd 5ed6 593e
00000060: ee20 aabe 766c 7bbd b3ee 32bd af53 3e3e
00000070: beb0 02bb ea56 033e d12e eb3e 28c0 6b3e
0.13828096 0.07775567 0.07855637 -0.96170115 0.16119939 0.04442064 0.04472952 0.22401649
0.23054837 0.1751707 -0.033211064 0.3171443 0.026160104 -0.28276283 -0.0048099877 -0.17952082
0.41619545 -0.13422577 0.027559543 -0.19908775 -0.16266744 -0.52821404 -0.06749605 0.21273181
-0.33228248 -0.061382733 -0.043684673 0.1858661 -0.0019941772 0.12826124 0.45934156 0.2302252

conv2d/bias f4 [32]
00000000: cbae a2bd 98d8 ebbd 815d 0c3e f819 4f3e
00000010: 1074 f2bd c886 89bd b95e 75be a625 c0bc
00000020: b144 d93d 9b88 013e 76ce c1bd 6041 253e
00000030: f059 81bd 25dc b23e a48b 04bd e7f1 20be
00000040: bd64 85ba fcaa 9ebd 6635 ec39 c59b c2bd
00000050: 47b8 05be fc55 f83d 5b72 19bd 8f50 acbd
00000060: b5e8 133e f7fa debd dfce bcbd 3319 303d
00000070: ac3c afbd 8614 06bd e2c2 523e 70df 89bd
-0.07943495 -0.11515921 0.13707544 0.2022475 -0.118385434 -0.067151606 -0.23961915 -0.023455452
0.10608805 0.12649767 -0.094632074 0.1613822 -0.06315982 0.34933582 -0.032359734 -0.15717278
-0.0010177117 -0.077474564 0.00045053213 -0.09502367 -0.13058577 0.12125775 -0.037462573 -0.08413803
0.1444424 -0.108877115 -0.09219145 0.04299278 -0.08556494 -0.032734416 0.20582154 -0.067320704

std.constant1 f4 [32]
00000000: ab76 ea41 fcf9 e241 6cdd df40 7375 e740
00000010: 7647 f340 fd5c c841 d4ce 2f41 8f3c e641
00000020: 3162 3541 4be6 9d40 1a11 f541 5751 d63f
00000030: 25b5 8641 ac3e 6141 9029 3841 07c0 f341
00000040: 2f43 b541 321f c541 66ac 8f41 0710 5a40
00000050: 3c9b e241 dd6f 1b3f 4d23 f041 38cb eb41
00000060: c4b7 4641 8c60 9b41 ca19 383f 07ea aabb
00000070: 6b38 e541 d07b ea41 4874 8641 2924 813e
29.307943 28.372063 6.995779 7.233087 7.6024733 25.045404 10.987995 28.77957
11.3364725 4.934362 30.63335 1.6743573 16.83845 14.077801 11.510147 30.468763
22.657804 24.640232 17.959179 3.4072282 28.325798 0.60717565 30.017237 29.474228
12.419865 19.422142 0.7191435 -0.0052158865 28.652548 29.310455 16.806778 0.252229

std.constant2 f4 [32]
00000000: 3c47 58bc f539 833b 94c8 36bf 0ae7 90bf
00000010: 5c1f 82bb e2a5 bfbc 788e 85bc 89b2 0a3c
00000020: 507a 6c3c 3b3c 0cc0 9285 ac3c 0e92 bcbe
00000030: 1970 75bb 03c3 c5c0 7717 a43c 3d1d 86bb
00000040: f0de 6437 49bf 083d 64ff b13b a220 c43d
00000050: b047 63ba e237 babd f7db ba3d 6aec d0bb
00000060: 305a 16c0 3048 1ebe 73f7 c3bf 9be3 4dbc
00000070: beb1 f4bc d85a 933b 99d6 9ec0 459b 45bd
-0.013200577 0.0040047118 -0.7139981 -1.1320508 -0.0039710235 -0.023394529 -0.016303286 0.008465418
0.014433458 -2.1911762 0.021059785 -0.3683018 -0.0037450849 -6.180055 0.02003072 -0.004092841
1.3641766e-05 0.03338555 0.0054320563 0.09576537 -0.0008670045 -0.0909269 0.09123986 -0.006375839
-2.3492546 -0.15457225 -1.530989 -0.012566472 -0.02986991 0.0044969134 -4.963696 -0.04824378

std.constant3 f4 [32]
00000000: 09c7 ae3e e25d 8a3e 09cb f73e 6d0b ad3e
00000010: f584 393e 44ab 0f3f d1bd 793e 03d7 383e
00000020: 17cd d53e c095 a73e 6b04 903e 33c0 fc3e
00000030: f74c fd3e 8e02 473f 87f0 973e 72fe 9f3e
00000040: a642 d23e 7332 023f 15d1 543e c03d 233f
00000050: 505d 923e f7fe 3b3e 0b62 003e c854 413e
00000060: b1e4 873e 6a4d b83e 6977 933e 5195 823e
00000070: 0e4b 773e d9c0 7a3e 3407 f33e 682e fe3e
0.34136227 0.27024752 0.4839709 0.3379778 0.18117125 0.56120706 0.24388815 0.1805077
0.41758034 0.32731438 0.2812837 0.49365386 0.49472782 0.77738273 0.29675695 0.31248814
0.41066474 0.5085823 0.20782883 0.637661 0.28586817 0.1835898 0.125374 0.18879998
0.26541665 0.35996562 0.2880204 0.25504544 0.24149725 0.24487628 0.47466433 0.4964478

std.constant4 f4 [32]
00000000: 4288 d0be b8ed 5bbf b9d1 c3be 8053 1e3b
00000010: 7ac5 60bf 7fe5 13bf 4e8c dcbe 2875 55bf
00000020: 000c 22bf f854 99be 4204 13bf 4ca6 e0be
00000030: 3280 d3be f5dc 9fbe 8b21 39bf 6454 dcbd
00000040: 2009 49bf 4a91 4ebf d89b fbbd 22d1 41bf
00000050: fe00 15bf 1c73 13bf 8ba7 b6be 283b b6be
00000060: f203 53bf aa4b 86bf c03a 87bd 68d7 7abe
00000070: a072 bdbc 28f5 13bf 0e1d 8cbf 8398 38bf
-0.40728956 -0.85909605 -0.38245943 0.0024158657 -0.87801325 -0.5777206 -0.43075794 -0.8338189
-0.6329956 -0.2994764 -0.5742837 -0.43876874 -0.41308743 -0.31223264 -0.7231681 -0.10758284
-0.7852955 -0.80690444 -0.12285584 -0.75709736 -0.5820464 -0.5759752 -0.356747 -0.35592008
-0.82427895 -1.0491841 -0.066030025 -0.24496233 -0.023125947 -0.57795954 -1.0946367 -0.72107714

std.constant5 f4 [64]
00000000: 953e 9d3e 7171 d73e 5766 483e 0a9b db3e
00000010: 6db4 c33e 60ec 2d3e 33ff 863e 57fd ba3e
00000020: 7f87 583e b9b5 033e cb1c 243e 8ac4 cb3e
00000030: 34b1 273e 83e8 903e 81c6 623e 5c22 213e
00000040: 5454 7e3e 569e b93e a85b 643e 9a05 d83d
00000050: 78c7 b43e e7d6 773e c38b 323e a9de a13e
00000060: c4f0 c93e 67ed 4c3e baf4 9f3e 7b04 8f3e
00000070: 1a8b 833e ae2a 8b3e 3b10 973e db64 ef3e
00000080: d553 863e 2a37 513e c8ac ba3e 8dd7 123e
00000090: b053 653e 2f72 ad3e 58f8 1c3e 9dd0 733e
000000a0: 030c 363e 6344 6c3e ab49 8c3e 2c4c 0e3e
000000b0: 2e4f 9c3d 9972 d23e d205 933e 13f9 283e
000000c0: 9222 123e 8821 7c3e 6110 893e 0723 953e
000000d0: 0b0e 703e a14b 0a3e 2815 2d3e 92bb 9a3e
000000e0: 9945 183f c0be ec3e a9b1 533e 34d0 613e
000000f0: cf3a 023f ae36 9c3e 73ab a23e 8208 ab3e
0.3071181 0.42078736 0.1957029 0.42891723 0.3822359 0.16984701 0.26366577 0.36521408
0.21145438 0.1286229 0.16026609 0.39798385 0.16376191 0.28302392 0.22146036 0.15735763
0.24836856 0.36253613 0.22300589 0.105479434 0.35308433 0.24203072 0.17436127 0.3161519
0.39441502 0.20012437 0.312414 0.27933106 0.25692064 0.27181 0.2950457 0.46756634
0.26235834 0.204312 0.36459947 0.14340039 0.22395205 0.33876178 0.1532911 0.23810048
0.1777802 0.23072962 0.27399954 0.13896245 0.0763229 0.41103056 0.28715378 0.16501264
0.14271 0.24622166 0.2677031 0.29128286 0.23442857 0.13505413 0.16902602 0.3022123
0.594812 0.4623928 0.2067324 0.2205208 0.50870985 0.30510467 0.3177143 0.33404928

std.constant6 f4 [64]
00000000: 5abc 6dbf 20fc c8be 7d4c 48be eabe e2be
00000010: fd2f 6fbf e055 80bd f8a9 823e ec26 5bbe
00000020: d0fd a5be c94c f6be 1afe 95be 73b7 83be
00000030: 6b25 93be 37ad 83be 0b7c 88be a09a e0bc
00000040: 460c fabe 7604 80be b821 86bf 3476 ecbe
00000050: 0c7c 97be 473f 85be 7c1b 23bf 9b49 91be
00000060: aa17 08bf e1fa 99be b895 473d 60e4 15bd
00000070: 9fc6 36bf 96f4 5cbe 4e37 a5bf ac82 9dbe
00000080: e45b 47bf 3483 cc3d 6e3b 7dbe 781e c43d
00000090: 44fb 963e 4596 58bf c852 d73d 2820 edbe
000000a0: f0b1 5cbf e3bd 5abe 66a8 53be 99e9 eebe
000000b0: cc6b cfbd b578 77bf 6c46 4b3e d97d 8dbe
000000c0: 3c66 c9bd 1841 e6bd 5638 19be badc 3cbf
000000d0: 70da 9ebf 921f 6cbe 5848 75be da5b 16bf
000000e0: 74c8 bdbe 247d ccbd 3444 183e 012a d5be
000000f0: 6239 74bf 2edf bbbe 8c21 e0bd 16e0 3fbe
-0.92865527 -0.39254856 -0.19560428 -0.4428628 -0.934326 -0.06266379 0.255203 -0.21401566
-0.32420206 -0.48105457 -0.29295427 -0.25725898 -0.28739485 -0.2571809 -0.26657137 -0.027417481
-0.4883749 -0.25003403 -1.047904 -0.46183932 -0.29586828 -0.2602484 -0.6371381 -0.2837647
-0.5316111 -0.30074218 0.048726767 -0.03659475 -0.7139682 -0.21577677 -1.2907503 -0.30763757
-0.7787459 0.099859625 -0.24729702 0.09576124 0.29488575 -0.84604293 0.10513836 -0.46313596
-0.8620901 -0.21361499 -0.20669708 -0.46662596 -0.101279825 -0.9666856 0.19851083 -0.27635077
-0.09833953 -0.112428844 -0.14962897 -0.737743 -1.2410412 -0.23058918 -0.23953378 -0.58733904
-0.37066996 -0.09984806 0.14869767 -0.4163361 -0.9540006 -0.3669371 -0.109438986 -0.18737826

std.constant7 f4 [64]
00000000: 490b 403e c061 853e f004 e93d 07d4 7a3e
00000010: 1afa a93e bbbd 2b3e ed5f 2f3f b9f5 873e
00000020: 3521 023e caf4 223e fad4 ff3d 5094 1e3e
00000030: b60f c63d 21de 053f 0847 893e 0732 9c3e
00000040: 567b 693e 5e09 f33d a086 553e 1dab 563e
00000050: e62c 2e3e 678c 723e e9cb c63e 73ff 653e
00000060: bc21 fc3d 54fa 3c3e f4b9 4f3e dee8 e13e
00000070: fed5 603e 632e b03e c84e 913e a904 173e
00000080: 58a4 873e 769f 643e 15bf 423e a006 793e
00000090: 9b76 953e 944d 9a3e e487 593e 3578 013e
000000a0: d5dc 7c3e 1ce0 463e 4f64 6b3e 5276 d43e
000000b0: cc4e 333e d6ea 653e bcb7 f13e fd5c 5f3e
000000c0: 77b9 2e3f a6c8 bd3e f675 f63d 94c0 b23e
000000d0: 0d2f 9f3e 946c fd3e fba2 403e a6f5 9e3d
000000e0: 0ba9 a23e 4211 573f b186 de3d cff1 c73d
000000f0: 9c7b 153e fa34 363e a350 7d3e efb1 ce3e
0.18754305 0.2605114 0.11377895 0.24494945 0.33198625 0.16771595 0.68505746 0.2655466
0.1270798 0.15913692 0.12491794 0.15486264 0.096709654 0.52292067 0.26812005 0.30506918
0.22800955 0.11867021 0.20852137 0.20963712 0.17009315 0.23686372 0.38827446 0.22460727
0.12311122 0.18454868 0.20285779 0.44122976 0.21956632 0.3441039 0.28380418 0.14747871
0.26492572 0.22326455 0.19018205 0.24318933 0.2919205 0.30137312 0.21243244 0.12643512
0.24693616 0.19421428 0.22987483 0.4149652 0.17510527 0.22452864 0.4721049 0.21812816
0.68251747 0.37067145 0.12034218 0.3491255 0.31090584 0.494969 0.18812172 0.077616975
0.31769595 0.8401071 0.10865534 0.09762918 0.14597934 0.17793646 0.24737792 0.40370128

std.constant8 f4 [64]
00000000: 14d4 79be 5652 3ebe 2174 06bf 9035 3ebf
00000010: 10cb e0bd 3518 11bf 4cf1 ae3e 12e2 c1bd
00000020: e07c 9abc 17ed 43bf bd3e 81be 0674 dbbe
00000030: 0535 e5be b5e2 15be 2c12 77bf fe10 4cbf
00000040: 224f 17bf 6eac 00bf 08fb b2be d86f 55be
00000050: 4e18 2cbf 5025 95bd 7e61 36be fbca 8abf
00000060: b9fe 14bf 3628 953e d3ab 6cbf 1618 ebbe
00000070: 8408 8fbe b687 95be 18a2 6ebf 4d30 8fbf
00000080: d162 0dbf 075b 81bf 1448 183e f45a 1abe
00000090: 722d 8dbe 4c93 adbd 9234 513e f8ca 153d
000000a0: 46c7 e6bd 0074 59bc 7835 f5bd 0d1b fbbe
000000b0: 30fa a6bf 5a08 86be 423b b1be 3d17 3dbf
000000c0: 36d7 f1be 825c bcbe 92a1 f2be 52be 113e
000000d0: 6080 a3be 6279 e1be d40d 8abf 3114 a4be
000000e0: 347f 4fbf 6c97 f8bd f819 e33d f031 3abf
000000f0: 0a78 2dbf 4636 56be aa04 5ebe 1e70 53be
-0.24397308 -0.18586096 -0.5252095 -0.7430048 -0.10976231 -0.5667756 0.3416847 -0.094669476
-0.018858373 -0.76533645 -0.25243178 -0.42861956 -0.44767013 -0.14637263 -0.96512103 -0.7971343
-0.5910512 -0.50263107 -0.34957147 -0.20843446 -0.67224586 -0.072825074 -0.17810628 -1.0843195
-0.58201176 0.2913224 -0.9244968 -0.45916814 -0.27936184 -0.29205102 -0.93216085 -1.1186615
-0.55228907 -1.0105904 0.14871246 -0.15073758 -0.27573735 -0.0847536 0.2043021 0.03657052
-0.11268477 -0.013272285 -0.11973089 -0.49044076 -1.3045101 -0.26178247 -0.34615523 -0.73863584
-0.47234505 -0.36789328 -0.47388893 0.14232758 -0.3193388 -0.4403792 -1.078547 -0.32046655
-0.8105347 -0.121382564 0.110889375 -0.7273245 -0.6776129 -0.20919141 -0.21681467 -0.20648238

std.constant9 f4 [64]
00000000: 8bdd fe3d c62e 343e 33ee 5b3e 4b16 c53d
00000010: 0695 0c3e 742d 143e c6ae e53d a06d ff3d
00000020: 161e 213e cfe4 223e 2c92 153e ab43 293e
00000030: 4544 023e f61d d13d e549 d43d 9aaa 093e
00000040: db6d 0b3e c130 353e d3d4 493e 1158 383e
00000050: 3cdb 783e fac5 e93d 4d84 0f3e 14e2 953e
00000060: c7cd 0f3e d2f2 133e b2c4 363e 99f6 163e
00000070: 6431 063e 935d df3d 19b6 e23d 3a35 a93d
00000080: dfaf 4f3e 43c1 2c3e 1cd8 2c3e 37a1 033e
00000090: 7ac4 e43d 2c50 383e 9af8 3f3e a37b 333e
000000a0: 290b 133e 5b4c 013e 2634 953d b5fe 023e
000000b0: d0f1 523e 732c 8f3e af6e 123e e241 133e
000000c0: 9c40 133e af99 2c3e 38b4 c93d b738 393e
000000d0: 3fc5 b93d b999 153e 7dce d03e 3026 323e
000000e0: 2fa0 2c3e 6335 353e fd3c 263e bea9 d93d
000000f0: 695f 8e3e d711 883e 6c3f 1b3e 67e9 643e
0.124446 0.17595968 0.21477585 0.09623393 0.13728723 0.14470464 0.11214976 0.12472081
0.15734133 0.15907596 0.14606541 0.1652972 0.12721355 0.10210793 0.10365657 0.13443986
0.13616125 0.1769438 0.19710092 0.18002345 0.24302381 0.11414714 0.14015312 0.29274046
0.14043342 0.14448097 0.17848471 0.14742507 0.13104779 0.1090652 0.110698886 0.08262105
0.20281933 0.16870598 0.16879314 0.12854467 0.111702874 0.17999333 0.18747178 0.17527632
0.14359726 0.12626784 0.07285337 0.12792476 0.20600057 0.279636 0.14300035 0.14380601
0.14380115 0.168555 0.09848827 0.18088041 0.09070825 0.14609422 0.40782538 0.1739738
0.1685798 0.17696147 0.16234203 0.10628079 0.27807167 0.2657611 0.15160912 0.22354661

std.constant10 f4 [64]
00000000: 424e 91be 0dd8 8dbe a888 50be a51a 70be
00000010: ba98 a9be 3015 8fbe 5795 00bf aad1 dabe
00000020: 91b7 8fbe 262d 22bf cc99 c2bd 3747 aebe
00000030: e9b2 eebe 38f2 05be 05be fcbe b500 e6be
00000040: 5290 87be 2b6f a0be fa39 26bf 2756 23bf
00000050: e03b eb3c 1816 ccbf a966 f6be f007 8fbc
00000060: 2c93 bbbe dd4a 62be 6e30 59be e35f 81be
00000070: eb8e eabe 2a1e 3abf 6cce a3be c076 85be
00000080: 90b5 82be f2c3 3dbe 754b 94be d9f6 48be
00000090: 801e 20bf b57d d7be 59cc babe 126f bebe
000000a0: 5c3a 02be ccfe 1abf eba2 debe 4e87 3ebe
000000b0: 539a 76be 8b68 15be 923d 9dbe 76c9 f2be
000000c0: 5400 1ebf 2558 a1be 1312 1abe 407c b9be
000000d0: e820 c6be 04a3 39be 1a9a b7be 40f1 2abe
000000e0: a5e8 a0be c71b f4be ad7e c1be 9e3e 36be
000000f0: e2a7 37be a9b9 d1be 065c 28bf 6ff0 8cbe
-0.28380018 -0.27703896 -0.2036463 -0.23447664 -0.33124334 -0.27945852 -0.50227875 -0.42738086
-0.28069738 -0.6335014 -0.09501991 -0.34038708 -0.46620873 -0.1308068 -0.49363723 -0.44922414
-0.26477295 -0.31334814 -0.64932215 -0.63803333 0.028715074 -1.5944242 -0.48125198 -0.01745984
-0.3663572 -0.2209887 -0.2120988 -0.25268468 -0.45812163 -0.72702277 -0.31993425 -0.26067162
-0.25529146 -0.18531778 -0.2896382 -0.19625415 -0.6254654 -0.42088094 -0.3648403 -0.37194115
-0.12717575 -0.6054504 -0.43483672 -0.18606302 -0.24082308 -0.14590661 -0.30711037 -0.47419327
-0.6171925 -0.3151256 -0.15045957 -0.36227608 -0.3869698 -0.18128592 -0.35859758 -0.16693592
-0.31427494 -0.47677442 -0.37791958 -0.17797324 -0.17935136 -0.4096196 -0.65765417 -0.27527186

std.constant11 f4 [64, 1024]
00000000: 8177 083f e810 ac3d e8cf 8a3e aa9c 4bbe
00000010: cb2f 95bc 803b 2cbe 0fa4 303d 4f3f 8f3e
00000020: b200 653d a6d0 1eb9 9bfe 8f3e ce45 fbbc
00000030: 03b5 af3d e8d1 b7bd f4fa 84bc 559e 31be
00000040: fdcb 333d 1a86 2f3d 78c8 14be 47b2 4abe
00000050: af87 d33b ddf9 87be e14f 10be 657f 07be
00000060: 1875 57be 99da 21bd ffb3 8a3e 7103 273e
00000070: 6619 153e 0b9b ccbd 750e 59be 8bcc 1fbe
00000080: 22b9 d33d b5a4 b8be e8d6 79be 0a63 bdbd
00000090: f506 2c3d 496b 513e dd29 52bd 610f 47be
000000a0: 4477 033d 8947 413b b652 89bd 9c24 f8bc
000000b0: e680 763d 80e8 813d 6be5 813e a537 163d
000000c0: d7d1 25bd a137 09be 7efa d2bd e6bd 50bd
000000d0: fe0f 2ebe b72f 483e 41db 29bd 17c3 5b3d
000000e0: 4fb7 56be 997e d73d ccde 23bd 094a 2bbe
000000f0: 0851 f8bd 06b1 f43d 8267 82bb 6049 3c3d
00000100: a608 f23e 55c4 c8bd 5198 d33d cea1 5ebd
00000110: aaf0 90bc df1a 57be 1603 bebc 3110 f9bd
00000120: 8a10 58bd 3819 203d 68bd 603d 42b6 6b3e
00000130: 3339 6c3e d8ce 4bbe a6ed 34be 0eb5 bdbe
00000140: 4ffd 90bd e01e 25be 0df1 febd 73d1 12be
00000150: 58c8 91be 9ae5 883e b971 88be 7cbf 1fbc
00000160: e65b afbe 3e0e bdbc eb12 073e 8ca4 043d
00000170: 3cfd 2cbe 44c1 a7bd 1f78 adbe e566 17bc
00000180: b330 d93d 09dc 0fbe e06c 58be e55d df3d
00000190: 4247 fa3c 80eb d43d 632f 13be fa36 a2bd
000001a0: 2b37 e5be 555c d2bd 8182 123e 9426 a4bd
000001b0: 828f 4f3e 0c5b b7be 9769 443e aa98 b5bd
000001c0: 2281 bb3d 0f4a 77bc 66f2 bf3c d104 0cbe
000001d0: 52a8 123e bbb4 203e d3d6 f63e fd37 da3e
000001e0: 7016 3fbe 82ca 8cbe 8a3d 953d 7a5d c1bc
000001f0: a1a3 0b3e 5540 773e 1ca2 c5bd 5b3c 7c3d
00000200: 7375 093f 1a6b ffbd 26ff eb3e 0286 dcbc
00000210: f288 a8bb 1f2c a7be f04a cebc 2abc 963d
00000220: 9953 a2bd 28df 753e dc9b 91bd a61e dbbd
00000230: dcaa c53b 4262 beb9 d874 3a3e 52c9 c63c
00000240: 3d91 663c 5485 c33d 00e3 1f3d 5e48 9d3d
00000250: 157c 6ebe e2db fcbc 3c7c 9dbd c12f b93e
00000260: 02c4 2ebe b539 98be 4a77 24be 621d 5d3d
00000270: 1bb1 023e 0a8b f4bb d81c 01bf 532f 9b3c
00000280: ee30 063e 0e12 f43c eb05 67be 0add 293d
00000290: 83de f6bd aa27 433e 9d4e a43c b948 04be
000002a0: 79d7 1ebe 518b 893e 7560 96bd e3c6 6cbe
000002b0: e15b 9fbd 8f16 543c 5dbd 753e 0fb2 523e
000002c0: bbfb 9ebd fab0 ca3e e0bd 38bd 375a 36be
000002d0: 846d 22be 5dec 6b3c 853a 873e bb2a 233e
000002e0: 3ea2 b9be 15b4 f73d 2696 b9bd 769a 13bc
000002f0: 87e4 4ebe 9c43 6ebc fae2 65bd fc31 0e3e
00000300: c906 953e f1a4 583e ee57 a63e 65a9 e4bd
00000310: 344b f83d a030 42be b8fb 07bd b9c2 6c3d
00000320: d9a6 04bd fdd1 2b3e b99c 6f3e ba49 b8bc
00000330: ac4f 2c3e 71bb 243e 0570 e33c a425 fa3e
00000340: 9693 a0bd 2624 f8bd 2654 9b3e f473 f43e
00000350: 15b5 ad3d 45c6 393d 5e1a 50be 3f44 a83e
00000360: aff0 c4be 0c04 46be 3165 0e3e 4a8e b23e
00000370: 4d36 0e3e ae13 243e 9faf 1dbe f1ba 553d
00000380: d2aa 1f3e 76a6 573d c6b9 a13d 1959 3fbd
00000390: 9f30 ed3d c73f 803e 1f9e 643e 8c83 04be
000003a0: a3d8 71be a896 52bd aa91 26bc 0585 0dbe
000003b0: 1617 fb3d 51ad e43d c705 933e 7d2c 363d
000003c0: aa16 b1be 051b 34be 9206 a53e da77 9ebe
000003d0: 5733 dfbe bee9 c23d db55 1f3d ead5 53bd
000003e0: 88cd 40be 1caf 33be 4ae1 9e3d ce66 85bd
000003f0: 14c4 6cbe fc17 82bd ae09 82be fb37 49bd
0.5330735 0.08401662 0.27111745 -0.19883981 -0.018211266 -0.16819572 0.04312521 0.27977988
0.055908866 -0.00015145782 0.28123936 -0.030672934 0.08579447 -0.08975583 -0.016232945 -0.17345555
0.04389571 0.0428525 -0.14529598 -0.1979457 0.0064553837 -0.26557818 -0.14092971 -0.13232191
-0.21040761 -0.03951511 0.2709045 0.16309907 0.1456047 -0.099905096 -0.21196921 -0.1560537
0.10338046 -0.36063161 -0.24398386 -0.09247406 0.041998822 0.20451082 -0.051309455 -0.1943946
0.032096162 0.0029492101 -0.06705229 -0.030290894 0.06018152 0.06343174 0.25370345 0.03667416
-0.040483322 -0.13400127 -0.10301684 -0.05096235 -0.16998288 0.19549452 -0.041468862 0.05365285
-0.20968364 0.105221935 -0.040007398 -0.16727461 -0.121248305 0.11947827 -0.0039796242 0.045968413
0.47272223 -0.09803072 0.103317864 -0.054353528 -0.017692883 -0.21006344 -0.02319483 -0.121612914
-0.052750148 0.03908655 0.054868132 0.23018745 0.23068695 -0.19903123 -0.1766878 -0.37052196
-0.07079565 -0.16125059 -0.124483205 -0.14337711 -0.28473163 0.26737672 -0.26649264 -0.009750243
-0.342498 -0.02307808 0.1319081 0.032383487 -0.16893476 -0.08191159 -0.33880708 -0.009240841
0.10604992 -0.1404878 -0.21135283 0.10906581 0.030551556 0.103964806 -0.14373545 -0.07920642
-0.44768652 -0.10271517 0.14307596 -0.08015171 0.20269588 -0.3581165 0.19180904 -0.08867009
0.091554895 -0.015093341 0.023431014 -0.13673712 0.14322022 0.15693943 0.48210773 0.4262084
-0.18660903 -0.2749825 0.07287128 -0.023604143 0.13636638 0.24145634 -0.096500605 0.061580997
0.5369484 -0.124716 0.460931 -0.026919369 -0.0051432783 -0.3265085 -0.025182217 0.07360108
-0.07926101 0.24010909 -0.07109806 -0.10699205 0.006032331 -0.00036312832 0.18208635 0.024265919
0.014072713 0.09546915 0.039034843 0.076798186 -0.23289521 -0.030866567 -0.076897115 0.36169246
-0.17066959 -0.29731527 -0.1606113 0.0539831 0.12762873 -0.007462864 -0.5043464 0.018943464
0.13104603 0.029793765 -0.22560851 0.041470565 -0.120541595 0.190581 0.020057017 -0.12918366
-0.15511884 0.26864102 -0.073426165 -0.23122744 -0.077811964 0.0129448315 0.23998018 0.20575736
-0.077628575 0.39588147 -0.045102954 -0.17807852 -0.1586209 0.014399615 0.26411834 0.15934269
-0.36256593 0.12094895 -0.09061842 -0.009008994 -0.20204364 -0.0145424865 -0.056124665 0.13886255
0.2910674 0.2115667 0.3248896 -0.11165122 0.12123719 -0.18963861 -0.033199042 0.05780289
-0.03238568 0.16779323 0.23399629 -0.022496093 0.16827267 0.16087128 0.027763376 0.48856843
-0.0784065 -0.1211627 0.30337638 0.47744715 0.08481804 0.0453551 -0.20322558 0.32864568
-0.38464877 -0.19337481 0.13905789 0.34874183 0.13887902 0.16023132 -0.15399025 0.052180234
0.15592507 0.052648984 0.078967616 -0.04671583 0.11581539 0.25048658 0.22325943 -0.12940806
-0.23617797 -0.05141321 -0.010166565 -0.13820274 0.12260263 0.1116587 0.28715345 0.04447602
-0.34587604 -0.17588432 0.32231575 -0.30950814 -0.43593857 0.09517239 0.038900238 -0.051717676
-0.18828404 -0.17547268 0.07757814 -0.06513749 -0.23121673 -0.06352231 -0.2539801 -0.049125653

std.constant12 f4 [2, 64]
00000000: b962 0abe c32c 033e 914a 533d dce8 1f3d
00000010: ec77 3f3e 0057 233e fb00 80be 16c4 89be
00000020: ebca d1bd dfb8 793d 09ec a53d 15f2 9f3c
00000030: 8e4a ed3d 37a0 a33e e884 c8bd 1f0f a5be
00000040: fff2 143e f491 35be b86b 1bbe 1b92 17bd
00000050: 0400 8b3d 8c07 683b 3fb8 403d 8e3c cbbd
00000060: 322a e63d 59c3 32be a6f8 b0bd ff38 59bc
00000070: 0db9 5e3d 1ba8 98bd 8d3a 1abe 9155 1dbe
00000080: cfa3 08bb d00c 993c 8e27 213e 13b1 34be
00000090: 5c36 bc3c d9fe b03d 5f22 1d3e 9087 773d
000000a0: cfcf 8ebe c5f3 833e 776b 20be 6e26 94bb
000000b0: f177 3e3e 8ffa f7bc 7fab 503e e3e2 b93d
000000c0: 2962 0abe af04 43bd 57b8 96bb c634 6cbe
000000d0: 3102 49be 2e7d d23d daa7 a4bd 2b94 d03a
000000e0: 75a5 c8bc 705c d3bd b840 883c 1313 d43d
000000f0: 736e a53d 3152 16be 2ca0 863d 1098 4e3d
00000100: 5f3f c7bc 94c2 5dbd 893a 2d3e bcf2 9fbd
00000110: 93df b53d 4118 45bc 3c2f f1bd 556d e1bd
00000120: 8c53 e43d 3b2f 38bc 6602 0dbe e405 23be
00000130: b674 24bd 6b79 0b3e 0b37 73be 4231 8abd
00000140: be52 943e c9d1 b9be 6d9d 4abd 6a9f 833d
00000150: daa0 05be f76d 8e3e 0547 04be f531 613d
00000160: c1c8 b83e 8af1 603c 3467 82be 34ca bc3d
00000170: e6b3 e2bd 2969 8e3d 46f0 163d df83 82bd
00000180: 6e62 473e 2e45 e9bd f5de 973e f0ac 80bd
00000190: 2029 453e dbef 5f3e 230d 9bbd 4a29 aabd
000001a0: 49f7 10be dd5e 16bc cff2 a6bc 4f26 fc3d
000001b0: eb9c be3d 8df9 043e 7621 be3d 2be2 4c3e
000001c0: d7b8 463d 6e11 0d3e 25b3 053e cd01 a5bd
000001d0: 4213 94be 7e36 963e 8aac e03d 920c 0a3e
000001e0: e841 29be b481 5bbe 3cd4 14be df69 863e
000001f0: 5db3 2ebe e765 7c3c 42e5 dbbd 61be 97bd
-0.13514222 0.12810044 0.051584784 0.03904043 0.1869809 0.15951157 -0.25000748 -0.26907414
-0.10243782 0.060967322 0.08101661 0.019524613 0.11586486 0.31958172 -0.09790975 -0.322381
0.1454582 -0.17731458 -0.1517781 -0.03700457 0.06787112 0.003540489 0.04705071 -0.09923659
0.11238517 -0.17457332 -0.08641176 -0.013258218 0.054375697 -0.074539386 -0.15061398 -0.15364672
-0.002084959 0.018682867 0.15737745 -0.17645673 0.02297514 0.08642358 0.15345143 0.060432017
-0.2789292 0.2577192 -0.15665995 -0.0045211827 0.18600442 -0.030270843 0.2037792 0.09076478
-0.13514008 -0.04761189 -0.0045996117 -0.23067006 -0.19629742 0.102777824 -0.08039828 0.0015913298
-0.024492959 -0.103203654 0.016632423 0.103552006 0.08077707 -0.14679791 0.06573519 0.050437987
-0.02432221 -0.054140642 0.1691686 -0.0780997 0.08880534 -0.012029708 -0.11776587 -0.110071816
0.11148748 -0.011241729 -0.13770446 -0.15920216 -0.040150367 0.13620536 -0.23751466 -0.067476764
0.28969377 -0.36292866 -0.04946654 0.0642689 -0.13049641 0.27818272 -0.12917717 0.054979283
0.36090663 0.013729462 -0.25469363 0.09218255 -0.11069469 0.069536515 0.036850236 -0.06372809
0.19471142 -0.11390148 0.2966229 -0.06282985 0.19253969 0.21868841 -0.07570865 -0.083086565
-0.14156832 -0.009177891 -0.020379452 0.12311994 0.093072735 0.12985821 0.09283726 0.20008151
0.04851612 0.1377618 0.1305662 -0.08056984 -0.28920943 0.2933845 0.10970409 0.13481358
-0.16529047 -0.21436197 -0.14534086 0.26252648 -0.17060609 0.015405155 -0.10737087 -0.07409359

std.constant13 f4 [32, 5, 5, 1]
00000000: 7335 fabd 868d 80bd ed76 90bd 9185 a3bd
00000010: 4378 8cbd 088e 6dbd 1dbd 89bd 8e63 02be
00000020: 6416 423d e54f babd fb2e fabd 9215 16bd
00000030: 8556 83bd 6a73 0cbb e2d8 54bd c30f 14bd
00000040: 2eef f1bd 90ce c53c 2bd2 67bc 1bc7 05be
00000050: 37f6 89bd 013d 27be 0001 9f3c 905b 79bd
00000060: 4b13 37be cb2b 46bb aaf7 3cbd 4882 08ba
00000070: 856e 69bd 83f0 a7bd cfc6 cabd 7057 b0bd
00000080: 5ec2 22be e8ef e7bc 17fe 9ebb 1582 58bc
00000090: 31fc 10bc 3dcb c03d 05c3 51bd 7a4e 04be
000000a0: 86fb e1bd 9709 29be 6dcd 76be 2179 b4bd
000000b0: a2d9 8e3c 9d0d e23c 7b72 7d3c 40ce 0d3d
000000c0: 9437 b3bd 9314 ebbd 1d8f 503e 19ae cd3e
000000d0: 790a d93e 0010 4e3e 63f4 da3d 84f1 ac3d
000000e0: 382d 403e b6b3 863e 6bf1 893e 6793 0a3d
000000f0: a8ad c8bd 55ad f43d 40b6 ec3d 836b 22bd
00000100: a502 1fbe 6e00 7ebc 2ee8 2cbe 6b56 49bd
00000110: 2468 04be 3cbc bbbd b0c9 b3be 617e 9abe
00000120: 7c9c bdbe 4de7 aabe b8b8 b5be efa6 92bc
00000130: 18b6 adbd 9fdc 87be 0bfb 0f3e 5b1d 333e
00000140: 2b43 d33c ef5f 31be fb19 8dbe 0b34 b03e
00000150: d877 b13e 5a45 e0bd 7561 b3be 7e63 06be
00000160: d6c9 603e a20c b53e 4814 81be 781b 82be
00000170: b056 51bc b4b5 0b3d fdfc d03e a7ee 55be
00000180: f70a 13be c603 73bd a7e9 a2bd fdae 3e3e
00000190: 2c04 c6bd b82e 92bd 42d2 a4bd 9462 fd3c
000001a0: e1ec 3bbe 8f39 013d c2da 363d 583c 283d
000001b0: 303f 853b 3fac 8abd 6530 3fbd b624 55bc
000001c0: f22c 22bd 33fd 00be 8896 2abe 9269 333c
000001d0: 0ede a9bd 441d 9abd eee2 ddbd c04a b7bd
000001e0: b2f4 923b 64c9 afbd 515b c2bd 74a3 13be
000001f0: c4c3 4cbc 94bb 93be 1bc6 d1be e214 87be
00000200: 2208 40be e3f9 49be 1d72 a1bc 0172 67be
00000210: 06e1 e93d 23a2 503e 2a09 22bd d90b 083e
00000220: 613b d4bc 6aea 50bd 7a9f 8e3d 322a 88be
00000230: 03f2 7ebd 3004 173d 01e6 78bd 45d8 6dbe
00000240: 7f42 8abe 559d c4be f76e b3be 3d68 7abe
00000250: 9d0b 98be b122 4ebe 66e9 313c 66dc debe
00000260: ab3b 0cbe 639d 143e ccdd 713e 9b7c adbd
00000270: 51d5 f6be 35ce 25be dce3 023e 2e4a 303e
00000280: 5863 34be 7b71 85be 838d 2bbe b2cb 063e
00000290: 1ba5 7e3e 09c4 5abe 412c 6dbe c2dc f3bd
000002a0: 0673 713e e09b 863e 40c3 4fbe 2dd5 eabd
000002b0: 100e a9bb eb7b 083e 0269 9d3e dfc8 cabe
000002c0: a313 8cbe 227d a8be ad01 da3d 8caa e23c
000002d0: 5107 02bf 8a4c 92be 3864 dcbe f601 60bd
000002e0: a152 143e 7a8d b4be 72dc 0dbe 3e9f d2be
000002f0: f4db 1cbe 728e b53d c34f e7be 8309 9bbe
00000300: 8e27 96be 184f 05be 078b 8f3e e42f f0be
00000310: 5aba b1be 38e5 31be 9574 96bd f56d 943e
00000320: 06f8 1fbe 00c8 283d 2818 f9bd 66e6 94be
00000330: 7124 933e 3644 20be f478 5dbe 7104 d4bd
00000340: 9e98 8dbe fced 443e 1e00 ef3d 8465 003e
00000350: 73b2 9cbe 548b c9be 1749 873e dc2a 62be
00000360: 9182 a4bc 4f93 073e ed0f 0ebe 6349 af3c
00000370: f310 a53c ffee 563e 8e4b 1c3d 28f1 f1be
00000380: 9ad5 2c3e 027d 91bd 244b b73d 3218 03be
00000390: 3cbf 153e 1733 e6bd 19b8 71bd cf73 233d
000003a0: 6334 723d 8978 0e3e 19ab 00be 7d68 49ba
000003b0: 6ba1 41be 52e2 033f eaa8 f7bd b079 a4bb
000003c0: 47fd 0e3d e83b 9bbe 2742 3b3f 105f a8be
000003d0: f230 9e3d 4a10 813c c99f e9bd 17a2 d73e
000003e0: 8637 13be 2ad3 a43d 6f93 b1bd 3851 15be
000003f0: 0006 75bd cf21 87bd 2d3b 6ebd c9d3 ee3c
-0.12217226 -0.062769935 -0.07053933 -0.0798446 -0.068588756 -0.05799678 -0.067255236 -0.1273329
0.047384635 -0.0909727 -0.12215992 -0.036641665 -0.06412987 -0.0021431097 -0.051964648 -0.036147844
-0.11813198 0.024146348 -0.014149229 -0.13064234 -0.06736415 -0.16331865 0.019409657 -0.060878336
-0.17878453 -0.0030238505 -0.04613463 -0.00052074017 -0.056990165 -0.08200171 -0.09901201 -0.086104274
-0.15894458 -0.028312638 -0.004852067 -0.013214608 -0.00884919 0.094137646 -0.051211376 -0.12920561
-0.110343024 -0.16507564 -0.24101801 -0.08812166 0.01743776 0.027594382 0.015469189 0.034620523
-0.08750835 -0.114785336 0.20367093 0.40171888 0.42390803 0.20123291 0.10691144 0.08444503
0.1876725 0.26308984 0.26942 0.03383198 -0.09798747 0.11947123 0.11558199 -0.039653312
-0.15528353 -0.015503032 -0.16885445 -0.04915468 -0.12930351 -0.09166762 -0.35114813 -0.30174544
-0.3703345 -0.33379593 -0.35492492 -0.017901866 -0.08481997 -0.26535508 0.14060609 0.17491667
0.025788864 -0.17321752 -0.27558884 0.34414706 0.34661746 -0.10950728 -0.3503529 -0.13123891
0.21951994 0.353612 -0.25210786 -0.25411582 -0.012777016 0.034108832 0.40818015 -0.2089182
-0.14359652 -0.05932977 -0.07954722 0.1862144 -0.096687645 -0.07137817 -0.08047916 0.030930795
-0.18352081 0.031549033 0.044642217 0.041073173 0.0040663704 -0.067711346 -0.046677012 -0.013009241
-0.039593644 -0.12596588 -0.16658986 0.010950463 -0.08294307 -0.07525113 -0.10834299 -0.08949804
0.0044847364 -0.08583334 -0.094900735 -0.14417821 -0.012497846 -0.28854048 -0.40971455 -0.2638312
-0.18753102 -0.1972423 -0.019707734 -0.22602083 0.11419873 0.2037435 -0.03955952 0.1328577
-0.02590722 -0.051004805 0.069640115 -0.26594692 -0.06224252 0.036869228 -0.060766224 -0.23227032
-0.27003857 -0.38401285 -0.35045597 -0.24453826 -0.2969636 -0.20130421 0.010858869 -0.43527526
-0.13694637 0.14513163 0.23619765 -0.08471032 -0.48209623 -0.16191943 0.12782234 0.17215797
-0.17616022 -0.2606314 -0.16753201 0.13163641 0.2486767 -0.21363844 -0.23161413 -0.119073406
0.23579034 0.26290798 -0.20289326 -0.11466441 -0.005159147 0.13328521 0.30744177 -0.39606377
-0.27358732 -0.3290797 0.10644851 0.027669214 -0.50792414 -0.2857402 -0.4304521 -0.05468937
0.14484645 -0.35264188 -0.13853624 -0.41137117 -0.1531828 0.0886506 -0.4517804 -0.30280694
-0.29327053 -0.13018453 0.28035757 -0.46911538 -0.34712487 -0.17372596 -0.07346455 0.2899014
-0.15621957 0.04120636 -0.121628106 -0.2908203 0.2873874 -0.1565102 -0.21628171 -0.1035241
-0.276555 0.19231409 0.11669944 0.12538725 -0.30604896 -0.3936411 0.2642295 -0.22086662
-0.02008179 0.13239788 -0.13873263 0.021397298 0.020149684 0.20989607 0.038157992 -0.472543
0.16878358 -0.071039215 0.08949879 -0.12802199 0.14623731 -0.11240213 -0.05901346 0.039905366
0.05913199 0.13913168 -0.12565269 -0.00076831115 -0.18909232 0.5151721 -0.12092765 -0.005019389
0.034909513 -0.30319142 0.73147815 -0.32885027 0.07724179 0.015754838 -0.1140743 0.42115852
-0.1437665 0.08048089 -0.08670699 -0.14581764 -0.059820175 -0.06598245 -0.058161903 0.029153721

std.constant14 f4 [32, 3, 3, 32]
00000000: f191 8c3b 6cf2 4fbe 7eb2 59be aeef 5b3e
00000010: 1d59 e2bc d4ee e93d d80f ff3d 2423 853e
00000020: ee58 e43d e6d6 133d dca2 db3d 44fc 67bc
00000030: c622 9bbd 4233 ab3e 761a 8abd 1c8b 413d
00000040: 9fe6 143e 1842 72bd 1551 4f3e 9c69 d7bd
00000050: f53a b63d 1849 88bd 2105 0f3c 77a5 8dbe
00000060: 04ca eabd 4a6b 2abd cedd 90bd 264b a83c
00000070: 4d2d 16bc 41e0 0a3e 5c3e 12be 1240 f1bc
00000080: d25a 8c3b 9cc7 90bd 8de4 263c 424a 6abe
00000090: bcf4 f6bc 08a7 333e 5f7f edbd 52ee 88bd
000000a0: bbf6 a6bd 683a 073f 7eb7 ddbc 8a9d 9539
000000b0: 9d59 033b ddc3 76be 788d fcbc d6e8 3e3e
000000c0: 11a4 513d c358 593d 081b 65be efda 9d3d
000000d0: aaeb 413e 30c6 e2be c519 bb3d 601e 97be
000000e0: 3dd9 783d 955e d6bd 9952 223e 12df 6a3b
000000f0: 138c bb3b 0be3 503b 28ae 7cbe 935c e3bd
00000100: e2be 653d 188f 9ebd 851d a2be fa24 bebb
00000110: 6470 f3bc db32 3f3e 5250 6e3d 77ac 733e
00000120: dbe2 933d f939 a53e c242 e33a 5056 42be
00000130: dcec 25bd 1415 fa3e 3272 0b3d c3b5 283e
00000140: ba89 e13d ac41 f13d 254d 11bd dfe6 923d
00000150: 2d3e 113e fcba 9bbe 8528 163e 4bbf 86be
00000160: ba2b 7c3d 2654 17bd 7213 c53d 6ce8 503e
00000170: 1958 7dbe 7a0b bf3d e74c d2bd 1275 e0bd
00000180: 5f72 18be 8b00 03be 15c8 fe3c c537 5e3e
00000190: b3c0 bb3d 62a7 6c3d 017b 71bb 3e03 c43d
000001a0: 07ee e5ba 702a b03e 7b6c 28bd 0ff2 553e
000001b0: 2049 b4bd 828a 743d 6120 f5bd 2427 493e
000001c0: 2f8d cb3d 0a68 a23d 590d 463e 10a5 153d
000001d0: c8d0 cdbd a747 133e 0f8b dd3d cebe 40be
000001e0: 67a3 da3d 8a31 0b3d ec36 f03d 06cb 2cbe
000001f0: da32 63be ca52 513d 93d1 dcbe d0a9 3a3d
00000200: 14b5 4f3d 6752 27be 185c 08ba 8fd7 c3bc
00000210: 4f1f c03d 81e0 683c d313 dfbd fe4d a4bd
00000220: e561 5fbe c799 503e cbea 353d 24ef fdbc
00000230: 2518 8cbc 72f6 423e fb36 5cbe a072 db3d
00000240: 808a 543e 379d ddbd 306f 91be a4ed 95bd
00000250: 7870 d43d d391 5e3e 97e6 2f3e 2076 94be
00000260: 9238 12be c543 a1bd bcc8 ad3c 010a e23d
00000270: aa88 653d d041 1a3e 165c adbe 142a 0d3e
00000280: 8699 b5bc 5bf5 5cbe 4cdd b23d 5fb8 783e
00000290: 7d49 9fbd 2b34 853e 8bc7 54be fed4 323e
000002a0: 706a 28bd 67cf d13e a399 25bd 1917 033e
000002b0: a1cf 0abd a8c0 343d 785b 033d 94b4 283e
000002c0: cb9e ad3d 5ea1 273d bbbb a4bd 32c8 78bd
000002d0: 6150 3d3e ee73 8f3d 791d b3bb 35a3 4dbe
000002e0: 32b0 0d3e 0c9d ce3d f91b 263d ec14 16bd
000002f0: 25d8 b1bd 9efa d93d cb15 a3be 97da 2a3c
00000300: c9a5 9f3d c323 62bd d45e d3bd d57e a1be
00000310: 898e 973c 4a69 043d 8afb 1fbe fb69 01bd
00000320: 9312 dcbd c1a8 e33e 54c5 b33d b9ff 9b3d
00000330: 53c0 0abd 3c3a d0be 70f1 873d aadf f53d
00000340: 6bd8 ed3d b398 24be ff7f 433e dbce 113e
00000350: cca4 0f3e 3012 8bbd 3c71 ea3d bb4f 7bbe
00000360: 00a1 e53d b53f 57be b95e 193e 5fb4 11be
00000370: bcce fbbd c20b 333d e255 d6be a6b2 a63d
00000380: 77bb 64bd 4560 4bbe 1ec7 b93d 2b22 0b3e
00000390: 74e4 ad3d d9cf 743d f66d debc 594d 44bd
000003a0: 9e9d b9bd cfe7 203e 29ca e43d fc88 743e
000003b0: 85a7 acbd ae8e a13e aada 1e3e 3635 e43d
000003c0: 5c4b c33d 14a1 d33d e133 22be e4b9 043d
000003d0: 8693 2f3b bbf7 613e 3c9c ab3a 772b 2dbe
000003e0: 6e80 43bd d415 b13d aa97 043d 8e89 f2bc
000003f0: 974d 85be 4a7d 1bbc 01d9 e2be 8319 f73d
0.0042898585 -0.2030732 -0.21259496 0.2147815 -0.027630383 0.11422506 0.12454194 0.26003373
0.111497745 0.036093615 0.10724422 -0.014159266 -0.07574992 0.33437544 -0.06743328 0.047251806
0.145411 -0.059145063 0.20245774 -0.1051819 0.08897964 -0.066545665 0.00872925 -0.27665302
-0.11464313 -0.041606225 -0.07073556 0.020543646 -0.009166074 0.13562109 -0.142816 -0.029449496
0.0042832876 -0.070693225 0.010186327 -0.2287989 -0.030145995 0.17544186 -0.1159656 -0.06686081
-0.08152529 0.52823496 -0.027065035 0.0002853687 0.0020042427 -0.24098153 -0.030829176 0.18643507
0.051181857 0.053063165 -0.22373593 0.07707774 0.18937555 -0.4429183 0.091357745 -0.29515362
0.06075405 -0.10467259 0.15851821 0.0035838527 0.0057234853 0.003187361 -0.2467581 -0.111016415
0.056090243 -0.07742137 -0.31663147 -0.005802748 -0.029716678 0.18671744 0.05818207 0.23796259
0.072210036 0.32270792 0.0017338621 -0.18978238 -0.04050909 0.48844206 0.034044452 0.16475587
0.110125974 0.11780104 -0.03547396 0.071729414 0.14183874 -0.30416095 0.14663894 -0.2631782
0.06156514 -0.036945485 0.096228495 0.20401162 -0.24740638 0.09328361 -0.10268574 -0.109598294
-0.14887379 -0.12793176 0.031101266 0.21700962 0.09167614 0.057776816 -0.0036846998 0.09570931
-0.0017542251 0.34407377 -0.04111908 0.2089312 -0.0880301 0.059702404 -0.119690664 0.19643837
0.09939038 0.0793 0.19341029 0.03653437 -0.100495875 0.14382802 0.10817539 -0.18822786
0.10675698 0.03398279 0.117292255 -0.16874322 -0.22187367 0.051104344 -0.43128642 0.045572102
0.0507098 -0.16340028 -0.00052017113 -0.023906497 0.09380972 0.014213682 -0.10892453 -0.08022688
-0.21814688 0.20371161 0.04441337 -0.03099782 -0.017101357 0.19039324 -0.21505348 0.10715222
0.20755959 -0.10821002 -0.28405142 -0.07320717 0.10373014 0.21735315 0.17177807 -0.28996372
-0.14279392 -0.07874254 0.021213882 0.11037064 0.056038536 0.15064168 -0.33859318 0.13785583
-0.022167932 -0.2157797 0.08733615 0.24289082 -0.07777689 0.26016364 -0.20779245 0.17464063
-0.04111713 0.40978548 -0.040429723 0.1280178 -0.033889417 0.044129044 0.032069653 0.16475135
0.08477553 0.040925376 -0.08043619 -0.060737796 0.18487693 0.07004534 -0.00546616 -0.2008179
0.13836744 0.10088548 0.04055402 -0.036641046 -0.086838044 0.106435046 -0.31852564 0.010428092
0.07795293 -0.055209886 -0.103208214 -0.31542078 0.018500583 0.032326974 -0.15623298 -0.03159521
-0.1074573 0.44464687 0.08777872 0.076171346 -0.03387482 -0.4066943 0.066378474 0.12005551
0.11613544 -0.16073875 0.19091795 0.14239065 0.14027709 -0.06790578 0.11447379 -0.24542134
0.11212349 -0.21020396 0.1497754 -0.14228962 -0.12295291 0.043712385 -0.41862398 0.08139543
-0.055842843 -0.19860943 0.09071182 0.13587253 0.084908396 0.05976853 -0.027152043 -0.047925327
-0.09063266 0.15713428 0.111713715 0.2388038 -0.08430389 0.31554168 0.15513101 0.11142962
0.09535858 0.103334576 -0.15840103 0.03240384 0.0026790812 0.22067158 0.0013092826 -0.16911112
-0.047729902 0.086467415 0.0323712 -0.029606607 -0.2603576 -0.00949032 -0.44306186 0.12065413

std.constant15 f4 [64, 3, 3, 32]
00000000: e573 11be 3012 53bd e63a 71be 91a3 843d
00000010: bbd5 163e 62df 743d fa8c 4c3d 51fa f3bd
00000020: b9a3 813e 8caa d83d e50b 2fbd 3024 143d
00000030: 6ddc b53d 8f7a 2e3c 6bde 90be 4adf e5bb
00000040: bc80 06be 8fdf e13c 3947 90bc b739 5b3d
00000050: cade 37be b2ba cbbd 2028 acbd 8577 1f3c
00000060: afc2 1d3e 581b f63d aac1 8ebe 2a56 adbd
00000070: e310 523e 824f 453d f5f0 b13d 2a47 1b3d
00000080: bbb9 58be 234b 4c3d 039c 89be ff45 8cbd
00000090: f597 9a3e 5226 543d 5d2f 27be cf45 89bd
000000a0: 325b 47ba 455d fdbe 0788 05be 3127 3b3c
000000b0: 4ba2 f23d 1587 2c3d 7610 9ebd 17cf 84bd
000000c0: 1e78 fcbe b483 efbb 0d88 ec3d bd45 aa3c
000000d0: 8e16 ad3b 1bbb 5ebe f335 92be 16ca ce3d
000000e0: d5c4 d33e 8f2d 6b3e 2041 23be 7714 69be
000000f0: 27e9 263e c84d d13c 4f4f 813b cc00 f7bd
00000100: 3cde 3f3b 3c0f f63d f480 a4be 2eea fa3b
00000110: 55e4 353e 3ed4 6a3c b16c a3be db37 e9bd
00000120: 53dd c63c 7297 63bd 666e d4bc 8bbb 403e
00000130: fcda b13d a477 803d 273b b5bc e1f2 38bd
00000140: 2524 0fbd 8073 21be 383d 153d 31fe b43d
00000150: b0b7 a63c 77a2 14be 6ead 17be aa6d 013e
00000160: 6908 aa3e 629a 6a3e 4439 8abd de06 cabd
00000170: e4e9 343e a7c6 c8bc 8735 d7bd 9ae7 753d
00000180: 67d3 213c c1e1 a9bd 4132 79be 1eb4 563c
00000190: 39c1 6d3d bf6f fdbe 908c b2be 9db6 0bbe
000001a0: 4fba b4bd b422 153c e662 38be 9203 763d
000001b0: a349 79be 9f3f 16bb 9e81 6a3d 61e5 0ebe
000001c0: abb7 17be 1ece bdbd 0c19 273d 8fbe b1be
000001d0: 2ae6 20be 9731 52be 612b 5fbd 7c23 54bd
000001e0: 06e4 f53e 953d 5f3e 2c40 63be 1e0b f1be
000001f0: e459 62be 7384 72be 2dba fa3d 9ff3 3fbd
00000200: 5e0a 9abe 033b 01be 3543 a6be c932 8ebd
00000210: 4653 6a3e 6642 12bf f00d 14bf 0388 6fbd
00000220: f3bc 47be f1a2 2ebe 1b96 04be 72ca abbd
00000230: b6dc 9ebe af02 b33a 9def 183e 0e46 b3bd
00000240: 0e4a 2fbd c000 1d3e 47fa 7f3e 772e 85be
00000250: 1618 88bd 5fde 8fbe a9c1 58be 5a2b ce3c
00000260: eca5 163f c7fd 833e 57e6 d8bd c05c 19bf
00000270: d93e 3ebe 1c36 c4bd 1a30 803c aa96 2cbe
00000280: e26a ffbd 2730 3c3c 15d9 d3be 9a17 4c3e
00000290: e0bf 453e 56aa ebbe 9713 1bbf 6c91 dfbd
000002a0: fae9 8dbe 04f5 95be 550a bcbd b8d2 053d
000002b0: 4ebb 5bbe e377 7dbb 39bd e43e fe3d 23be
000002c0: fc17 f83b 0e50 95bc 2308 273d 1adc 50be
000002d0: 2a19 bb3d 63aa 8cbe 590f 15be 5ec5 183d
000002e0: 8ec3 323f 2f5a ac3e 9da1 93bd e13e efbe
000002f0: 91ed e1be c377 08be 4a0e 66be 0915 16be
00000300: 3f40 e0bc 4c9f 58bd 266e da3d be16 fe3b
00000310: bb21 a23d 0437 eabe 6f38 c5be a31c a33e
00000320: 475d 57bd 8ff1 613d 0e8f 26be 7a6d 373d
00000330: 3f05 85be a7ff df3d 8e17 9b3e fbb6 9dbe
00000340: 10df 55be f946 52bd 9f62 6c3d b57a cabd
00000350: 120e 58be b307 e3bd 3661 92bb 2f80 73bd
00000360: d420 053f de04 b93e cc53 c0be 3f2c 02bf
00000370: fc8a 92be e173 babd 6fab 963d ccb4 9abd
00000380: b944 77be 314d 97bd 1e62 1b3e a7c5 01be
00000390: 0f7e db3e 27ab f2be e568 09bf 3463 623e
000003a0: ba7b c5bd ad6b 6d3c a3c8 12be 7ddd 53be
000003b0: a221 54be 9b0b 3e3d 069c 843e b45d 4abe
000003c0: 6c5a 3abd 9880 1b3e 0444 913d da6b b7bc
000003d0: 91b9 5b3c 82f9 56be aa0c 16be 2839 693d
000003e0: 6c47 463f c361 ba3e 1032 8abe 3fa3 05bf
000003f0: e99a 673d 6b9f 8c3d 1ed1 31bd e6ea 88bd
-0.14204367 -0.051531017 -0.23557624 0.0647651 0.14729969 0.059783347 0.049939133 -0.119129784
0.25320223 0.10579404 -0.042735953 0.036167324 0.088799335 0.010649337 -0.2829469 -0.0070151435
-0.13135046 0.027572421 -0.017612087 0.053521838 -0.17956081 -0.09947719 -0.08406091 0.0097330855
0.15406297 0.12016934 -0.2788213 -0.084637 0.20514254 0.048171528 0.08688537 0.037909664
-0.211646 0.049876343 -0.2687684 -0.06849288 0.3019406 0.051794358 -0.16326661 -0.06702768
-0.0007604837 -0.49485222 -0.13040172 0.011422918 0.11847361 0.04212101 -0.077179834 -0.06484812
-0.49310392 -0.0073094014 0.11549387 0.020785207 0.0052822297 -0.21751063 -0.28556785 0.100971386
0.41361108 0.22966598 -0.15942812 -0.22761713 0.16299878 0.025549784 0.003946222 -0.12060699
0.002927675 0.120146245 -0.32129633 0.007657311 0.17762883 0.014332829 -0.31918862 -0.11387607
0.024275457 -0.05556435 -0.025931548 0.18821542 0.08684346 0.0627282 -0.022122933 -0.045153502
-0.03494658 -0.15766716 0.036435336 0.08837546 0.02035126 -0.145151 -0.14812252 0.1263949
0.3320954 0.22910455 -0.06749204 -0.09864591 0.17667347 -0.024508787 -0.105082564 0.060035326
0.009877062 -0.08295012 -0.24335577 0.013104467 0.0580456 -0.49499318 -0.34872866 -0.1364388
-0.08824598 0.009102512 -0.18006477 0.060062 -0.24344496 -0.0022926105 0.05725252 -0.13954689
-0.14816158 -0.09267829 0.04079537 -0.34715697 -0.157128 -0.2052673 -0.05448473 -0.051791653
0.4802553 0.21800835 -0.22192448 -0.47078794 -0.22104603 -0.23683338 0.122425415 -0.046863195
-0.30086035 -0.12620167 -0.3247315 -0.0694328 0.22883329 -0.57132566 -0.57833767 -0.05847932
-0.19505672 -0.17054345 -0.12947886 -0.08388223 -0.31027764 0.0013657416 0.14935155 -0.08753596
-0.042795233 0.15332317 0.24997817 -0.26012012 -0.06645219 -0.28099343 -0.21167625 0.025167156
0.58846927 0.25779554 -0.10590809 -0.5990715 -0.18578662 -0.09580633 0.015647937 -0.16854349
-0.12471558 0.01148609 -0.41376558 0.19930878 0.19311476 -0.46028394 -0.60576767 -0.10916409
-0.27717572 -0.29288495 -0.09181658 0.03267166 -0.2145817 -0.0038676194 0.44675615 -0.15941617
0.0075712185 -0.01822665 0.040779244 -0.20396462 0.09135659 -0.27473745 -0.14556636 0.0372976
0.6982964 0.33662555 -0.0720856 -0.4672766 -0.4412656 -0.13326935 -0.22466388 -0.14656462
-0.027374385 -0.052886292 0.106655404 0.007754176 0.0791659 -0.457451 -0.38519618 0.31857786
-0.05257919 0.05516201 -0.16265509 0.04478214 -0.25980565 0.10937434 0.30291408 -0.30803666
-0.20885873 -0.051337216 0.05771124 -0.09886686 -0.21099117 -0.11085453 -0.004467155 -0.059448417
0.52003217 0.36136526 -0.37563932 -0.50848764 -0.28621662 -0.091041334 0.07356917 -0.075540155
-0.2414731 -0.0738777 0.15174147 -0.12673055 0.42869613 -0.47396204 -0.5367568 0.22108155
-0.096427396 0.014491004 -0.1433435 -0.2068996 -0.20715955 0.046397787 0.25900286 -0.19762307
-0.04549639 0.15185773 0.07093051 -0.022390295 0.013410942 -0.20993617 -0.14653268 0.056939274
0.7745273 0.3640271 -0.2699132 -0.5220222 0.05654422 0.06866344 -0.04341232 -0.06685428
